…
    "model.add(Dense(num_classes))\n",
    "model.add(Activation('softmax'))\n",
    "\n",
    "model.compile(loss='categorical_crossentropy', optimizer='rmsprop',metrics=[\"accuracy\"])\n"
   ]
  },
  {
   "cell_type": "code",
   "execution_count": 14,
   "metadata": {},
   "outputs": [
    {
     "name": "stdout",
     "output_type": "stream",
     "text": [
      "_________________________________________________________________\n",
      "Layer (type)                 Output Shape              Param #   \n",
      "=================================================================\n",
      "conv2d_4 (Conv2D)            (None, 128, 128, 32)      320       \n",
      "_________________________________________________________________\n",
      "activation_6 (Activation)    (None, 128, 128, 32)      0         \n",
      "_________________________________________________________________\n",
      "conv2d_5 (Conv2D)            (None, 126, 126, 32)      9248      \n",
      "_________________________________________________________________\n",
      "activation_7 (Activation)    (None, 126, 126, 32)      0         \n",
      "_________________________________________________________________\n",
      "max_pooling2d_3 (MaxPooling2 (None, 63, 63, 32)        0         \n",
      "_________________________________________________________________\n",
      "dropout_4 (Dropout)          (None, 63, 63, 32)        0         \n",
      "_________________________________________________________________\n",
      "conv2d_6 (Conv2D)            (None, 61, 61, 64)        18496     \n",
      "_________________________________________________________________\n",
      "activation_8 (Activation)    (None, 61, 61, 64)        0         \n",
      "_________________________________________________________________\n",
      "max_pooling2d_4 (MaxPooling2 (None, 30, 30, 64)        0         \n",
      "_________________________________________________________________\n",
      "dropout_5 (Dropout)          (None, 30, 30, 64)        0         \n",
      "_________________________________________________________________\n",
      "flatten_2 (Flatten)          (None, 57600)             0         \n",
      "_________________________________________________________________\n",
      "dense_3 (Dense)              (None, 64)                3686464   \n",
      "_________________________________________________________________\n",
      "activation_9 (Activation)    (None, 64)                0         \n",
      "_________________________________________________________________\n",
      "dropout_6 (Dropout)          (None, 64)                0         \n",
      "_________________________________________________________________\n",
      "dense_4 (Dense)              (None, 4)                 260       \n",
      "_________________________________________________________________\n",
      "activation_10 (Activation)   (None, 4)                 0         \n",
      "=================================================================\n",
      "Total params: 3,714,788\n",
      "Trainable params: 3,714,788\n",
      "Non-trainable params: 0\n",
      "_________________________________________________________________\n",
      "Train on 646 samples, validate on 162 samples\n",
      "Epoch 1/10\n",
      "646/646 [==============================] - 21s - loss: 1.7338 - acc: 0.2446 - val_loss: 1.3869 - val_acc: 0.2407\n",
…
